…
&lt;/code&gt;&lt;/pre&gt;&lt;/div&gt;&lt;hr&gt;
&lt;p&gt;æ•´ä½“æ¨ç†è¿‡ç¨‹ å’Œ éŸ³è‰²è½¬æ¢è¿‡ç¨‹å¦‚å›¾ä»£ç æ‰€ç¤ºï¼š&lt;/p&gt;
&lt;p&gt;&lt;img src=&#34;https://raw.githubusercontent.com/weedge/mypic/master/multimoding/voices/open_voice_inference/3.jpg&#34; alt=&#34;&#34;&gt;&lt;/p&gt;
&lt;hr&gt;
&lt;p&gt;Reference encoder: ReferenceEncoder (å½“æ¨¡å‹é…ç½®ä¸ºn_speakers==0çš„æ—¶å€™ä½¿ç”¨)&lt;/p&gt;
&lt;div class=&#34;highlight&#34;&gt;&lt;pre tabindex=&#34;0&#34; class=&#34;chroma&#34;&gt;&lt;code class=&#34;language-fallback&#34; data-lang=&#34;fallback&#34;&gt;  (ref_enc): ReferenceEncoder(
    (convs): ModuleList(
      (0): Conv2d(1, 32, kernel_size=(3, 3), stride=(2, 2), padding=(1, 1))
      (1): Conv2d(32, 32, kernel_size=(3, 3), stride=(2, 2), padding=(1, 1))
      (2): Conv2d(32, 64, kernel_size=(3, 3), stride=(2, 2), padding=(1, 1))
      (3): Conv2d(64, 64, kernel_size=(3, 3), stride=(2, 2), padding=(1, 1))
      (4): Conv2d(64, 128, kernel_size=(3, 3), stride=(2, 2), padding=(1, 1))
      (5): Conv2d(128, 128, kernel_size=(3, 3), stride=(2, 2), padding=(1, 1))
    )
    (gru): GRU(1152, 128, batch_first=True)
    (proj): Linear(in_features=128, out_features=256, bias=True)
    (layernorm): LayerNorm((513,), eps=1e-05, elementwise_affine=True)
  )
&lt;/code&gt;&lt;/pre&gt;&lt;/div&gt;&lt;p&gt;forward:&lt;/p&gt;
&lt;div class=&#34;highlight&#34;&gt;&lt;pre tabindex=&#34;0&#34; class=&#34;chroma&#34;&gt;&lt;code class=&#34;language-python&#34; data-lang=&#34;python&#34;&gt;&lt;span class=&#34;k&#34;&gt;def&lt;/span&gt; &lt;span class=&#34;nf&#34;&gt;forward&lt;/span&gt;&lt;span class=&#34;p&#34;
…
    &lt;span class=&#34;k&#34;&gt;return&lt;/span&gt; &lt;span class=&#34;n&#34;&gt;z&lt;/span&gt;&lt;span class=&#34;p&#34;&gt;,&lt;/span&gt; &lt;span class=&#34;n&#34;&gt;m&lt;/span&gt;&lt;span class=&#34;p&#34;&gt;,&lt;/span&gt; &lt;span class=&#34;n&#34;&gt;logs&lt;/span&gt;&lt;span class=&#34;p&#34;&gt;,&lt;/span&gt; &lt;span class=&#34;n&#34;&gt;x_mask&lt;/span&gt;
&lt;/code&gt;&lt;/pre&gt;&lt;/div&gt;&lt;hr&gt;
&lt;p&gt;flow: ResidualCouplingBlock&lt;/p&gt;
&lt;div class=&#34;highlight&#34;&gt;&lt;pre tabindex=&#34;0&#34; class=&#34;chroma&#34;&gt;&lt;code class=&#34;language-fallback&#34; data-lang=&#34;fallback&#34;&gt;  (flow): ResidualCouplingBlock(
    (flows): ModuleList(
      (0): ResidualCouplingLayer(
        (pre): Conv1d(96, 192, kernel_size=(1,), stride=(1,))
        (enc): WN(
          (in_layers): ModuleList(
            (0-3): 4 x Conv1d(192, 384, kernel_size=(5,), stride=(1,), padding=(2,))
          )
          (res_skip_layers): ModuleList(
            (0-2): 3 x Conv1d(192, 384, kernel_size=(1,), stride=(1,))
            (3): Conv1d(192, 192, kernel_size=(1,), stride=(1,))
          )
          (drop): Dropout(p=0, inplace=False)
          (cond_layer): Conv1d(256, 1536, kernel_size=(1,), stride=(1,))
        )
        (post): Conv1d(192, 96, kernel_size=(1,), stride=(1,))
      )
      (1): Flip()
      (2): ResidualCouplingLayer(
        (pre): Conv1d(96, 192, kernel_size=(1,), stride=(1,))
        (enc): WN(
          (in_layers): ModuleList(
            (0-3): 4 x Conv1d(192, 384, kernel_size=(5,), stride=(1,), padding=(2,))
          )
          (res_skip_layers): ModuleList(
            (0-2): 3 x Conv1d(192, 384, kernel_size=(1,), stride=(1,))
            (3): Conv1d(192, 192, kernel_size=(1,), stride=(1,))
          )
          (drop): Dropout(p=0, inplace=False)
          (cond_layer): Conv1d(256, 1536, kernel_size=(1,), stride=(1,))
        )
        (post): Conv1d(192, 96, kernel_size=(1,), stride=(1,))
      )
      (3): Flip()
      (4): ResidualCouplingLayer(
        (pre): Conv1d(96, 192, kernel_size=(1,), stride=(1,))
        (enc): WN(
          (in_layers): ModuleList(
            (0-3): 4 x Conv1d(192, 384, kernel_size=(5,), stride=(1,), padding=(2,))
          )
          (res_skip_layers): ModuleList(
            (0-2): 3 x Conv1d(192, 384, kernel_size=(1,), stride=(1,))
            (3): Conv1d(192, 192, kernel_size=(1,), stride=(1,))
          )
          (drop): Dropout(p=0, inplace=False)
          (cond_layer): Conv1d(256, 1536, kernel_size=(1,), stride=(1,))
        )
        (post): Conv1d(192, 96, kernel_size=(1,), stride=(1,))
      )
      (5): Flip()
      (6): ResidualCouplingLayer(
        (pre): Conv1d(96, 192, kernel_size=(1,), stride=(1,))
        (enc): WN(
          (in_layers): ModuleList(
            (0-3): 4 x Conv1d(192, 384, kernel_size=(5,), stride=(1,), padding=(2,))
          )
          (res_skip_layers): ModuleList(
            (0-2): 3 x Conv1d(192, 384, kernel_size=(1,), stride=(1,))
            (3): Conv1d(192, 192, kernel_size=(1,), stride=(1,))
          )
          (drop): Dropout(p=0, inplace=False)
          (cond_layer): Conv1d(256, 1536, kernel_size=(1,), stride=(1,))
        )
        (post): Conv1d(192, 96, kernel_size=(1,), stride=(1,))
      )
      (7): Flip()
    )
  )
&lt;/code&gt;&lt;/pre&gt;&lt;/div&gt;&lt;p&gt;forward:&lt;/p&gt;
&lt;div class=&#34;highlight&#34;&gt;&lt;pre tabindex=&#34;0&#34; class=&#34;chroma&#34;&gt;&lt;code class=&#34;language-python&#34; data-lang=&#34;python&#34;&gt;&lt;span class=&#34;k&#34;&gt;def&lt;/span&gt; &lt;span class=&#34;nf&#34;&gt;forward&lt;/span&g
…
&gt; &lt;span class=&#34;n&#34;&gt;reverse&lt;/span&gt;&lt;span class=&#34;o&#34;&gt;=&lt;/span&gt;&lt;span class=&#34;n&#34;&gt;reverse&lt;/span&gt;&lt;span class=&#34;p&#34;&gt;)&lt;/span&gt;
    &lt;span class=&#34;k&#34;&gt;return&lt;/span&gt; &lt;span class=&#34;n&#34;&gt;x&lt;/span&gt;
&lt;/code&gt;&lt;/pre&gt;&lt;/div&gt;&lt;hr&gt;
&lt;p&gt;decoder: Generator (HIFI-GAN Generator)&lt;/p&gt;
&lt;div class=&#34;highlight&#34;&gt;&lt;pre tabindex=&#34;0&#34; class=&#34;chroma&#34;&gt;&lt;code class=&#34;language-fallback&#34; data-lang=&#34;fallback&#34;&gt;  (dec): Generator(
    (conv_pre): Conv1d(192, 512, kernel_size=(7,), stride=(1,), padding=(3,))
    (ups): ModuleList(
      (0): ConvTranspose1d(512, 256, kernel_size=(16,), stride=(8,), padding=(4,))
      (1): ConvTranspose1d(256, 128, kernel_size=(16,), stride=(8,), padding=(4,))
      (2): ConvTranspose1d(128, 64, kernel_size=(4,), stride=(2,), padding=(1,))
      (3): ConvTranspose1d(64, 32, kernel_size=(4,), stride=(2,), padding=(1,))
    )
    (resblocks): ModuleList(
      (0): ResBlock1(
        (convs1): ModuleList(
          (0): Conv1d(256, 256, kernel_size=(3,), stride=(1,), padding=(1,))
          (1): Conv1d(256, 256, kernel_size=(3,), stride=(1,), padding=(3,), dilation=(3,))
          (2): Conv1d(256, 256, kernel_size=(3,), stride=(1,), padding=(5,), dilation=(5,))
        )
        (convs2): ModuleList(
          (0-2): 3 x Conv1d(256, 256, kernel_size=(3,), stride=(1,), padding=(1,))
        )
      )
      (1): ResBlock1(
        (convs1): ModuleList(
          (0): Conv1d(256, 256, kernel_size=(7,), stride=(1,), padding=(3,))
          (1): Conv1d(256, 256, kernel_size=(7,), stride=(1,), padding=(9,), dilation=(3,))
          (2): Conv1d(256, 256, kernel_size=(7,), stride=(1,), padding=(15,), dilation=(5,))
        )
        (convs2): ModuleList(
          (0-2): 3 x Conv1d(256, 256, kernel_size=(7,), stride=(1,), padding=(3,))
        )
      )
      (2): ResBlock1(
        (convs1): ModuleList(
          (0): Conv1d(256, 256, kernel_size=(11,), stride=(1,), padding=(5,))
          (1): Conv1d(256, 256, kernel_size=(11,), stride=(1,), padding=(15,), dilation=(3,))
          (2): Conv1d(256, 256, kernel_size=(11,), stride=(1,), padding=(25,), dilation=(5,))
        )
        (convs2): ModuleList(
          (0-2): 3 x Conv1d(256, 256, kernel_size=(11,), stride=(1,), padding=(5,))
        )
      )
      (3): ResBlock1(
        (convs1): ModuleList(
          (0): Conv1d(128, 128, kernel_size=(3,), stride=(1,), padding=(1,))
          (1): Conv1d(128, 128, kernel_size=(3,), stride=(1,), padding=(3,), dilation=(3,))
          (2): Conv1d(128, 128, kernel_size=(3,), stride=(1,), padding=(5,), dilation=(5,))
        )
        (convs2): ModuleList(
          (0-2): 3 x Conv1d(128, 128, kernel_size=(3,), stride=(1,), padding=(1,))
        )
      )
      (4): ResBlock1(
        (convs1): ModuleList(
          (0): Conv1d(128, 128, kernel_size=(7,), stride=(1,), padding=(3,))
          (1): Conv1d(128, 128, kernel_size=(7,), stride=(1,), padding=(9,), dilation=(3,))
          (2): Conv1d(128, 128, kernel_size=(7,), stride=(1,), padding=(15,), dilation=(5,))
        )
        (convs2): ModuleList(
          (0-2): 3 x Conv1d(128, 128, kernel_size=(7,), stride=(1,), padding=(3,))
        )
      )
      (5): ResBlock1(
        (convs1): ModuleList(
          (0): Conv1d(128, 128, kernel_size=(11,), stride=(1,), padding=(5,))
          (1): Conv1d(128, 128, kernel_size=(11,), stride=(1,), padding=(15,), dilation=(3,))
          (2): Conv1d(128, 128, kernel_size=(11,), stride=(1,), padding=(25,), dilation=(5,))
        )
        (convs2): ModuleList(
          (0-2): 3 x Conv1d(128, 128, kernel_size=(11,), stride=(1,), padding=(5,))
        )
      )
      (6): ResBlock1(
        (convs1): ModuleList(
          (0): Conv1d(64, 64, kernel_size=(3,), stride=(1,), padding=(1,))
          (1): Conv1d(64, 64, kernel_size=(3,), stride=(1,), padding=(3,), dilation=(3,))
          (2): Conv1d(64, 64, kernel_size=(3,), stride=(1,), padding=(5,), dilation=(5,))
        )
        (convs2): ModuleList(
          (0-2): 3 x Conv1d(64, 64, kernel_size=(3,), stride=(1,), padding=(1,))
        )
      )
      (7): ResBlock1(
        (convs1): ModuleList(
          (0): Conv1d(64, 64, kernel_size=(7,), stride=(1,), padding=(3,))
          (1): Conv1d(64, 64, kernel_size=(7,), stride=(1,), padding=(9,), dilation=(3,))
          (2): Conv1d(64, 64, kernel_size=(7,), stride=(1,), padding=(15,), dilation=(5,))
        )
        (convs2): ModuleList(
          (0-2): 3 x Conv1d(64, 64, kernel_size=(7,), stride=(1,), padding=(3,))
        )
      )
      (8): ResBlock1(
        (convs1): ModuleList(
          (0): Conv1d(64, 64, kernel_size=(11,), stride=(1,), padding=(5,))
          (1): Conv1d(64, 64, kernel_size=(11,), stride=(1,), padding=(15,), dilation=(3,))
          (2): Conv1d(64, 64, kernel_size=(11,), stride=(1,), padding=(25,), dilation=(5,))
        )
        (convs2): ModuleList(
          (0-2): 3 x Conv1d(64, 64, kernel_size=(11,), stride=(1,), padding=(5,))
        )
      )
      (9): ResBlock1(
        (convs1): ModuleList(
          (0): Conv1d(32, 32, kernel_size=(3,), stride=(1,), padding=(1,))
          (1): Conv1d(32, 32, kernel_size=(3,), stride=(1,), padding=(3,), dilation=(3,))
          (2): Conv1d(32, 32, kernel_size=(3,), stride=(1,), padding=(5,), dilation=(5,))
        )
        (convs2): ModuleList(
          (0-2): 3 x Conv1d(32, 32, kernel_size=(3,), stride=(1,), padding=(1,))
        )
      )
      (10): ResBlock1(
        (convs1): ModuleList(
          (0): Conv1d(32, 32, kernel_size=(7,), stride=(1,), padding=(3,))
          (1): Conv1d(32, 32, kernel_size=(7,), stride=(1,), padding=(9,), dilation=(3,))
          (2): Conv1d(32, 32, kernel_size=(7,), stride=(1,), padding=(15,), dilation=(5,))
        )
        (convs2): ModuleList(
          (0-2): 3 x Conv1d(32, 32, kernel_size=(7,), stride=(1,), padding=(3,))
        )
      )
      (11): ResBlock1(
        (convs1): ModuleList(
          (0): Conv1d(32, 32, kernel_size=(11,), stride=(1,), padding=(5,))
          (1): Conv1d(32, 32, kernel_size=(11,), stride=(1,), padding=(15,), dilation=(3,))
          (2): Conv1d(32, 32, kernel_size=(11,), stride=(1,), padding=(25,), dilation=(5,))
        )
        (convs2): ModuleList(
          (0-2): 3 x Conv1d(32, 32, kernel_size=(11,), stride=(1,), padding=(5,))
        )
      )
    )
    (conv_post): Conv1d(32, 1, kernel_size=(7,), stride=(1,), padding=(3,), bias=False)
    (cond): Conv1d(256, 512, kernel_size=(1,), stride=(1,))
  )
&lt;/code&gt;&lt;/pre&gt;&lt;/div&gt;&lt;p&gt;forward:&lt;/p&gt;
&lt;div class=&#34;highlight&#34;&gt;&lt;pre tabindex=&#34;0&#34; class=&#34;chroma&#34;&gt;&lt;code class=&#34;language-python&#34; data-lang=&#34;python&#34;&gt;&lt;span class=&#34;k&#34;&gt;def&lt;/span&gt; &lt;span class=&#34;nf&#34;&gt;forward&lt;/span&gt;&lt;span class=&#34;p&#34;&gt
…
;#34;facebook/nllb-200-distilled-600M&amp;#34;&lt;/span&gt;&lt;span class=&#34;p&#34;&gt;,&lt;/span&gt; &lt;span class=&#34;n&#34;&gt;use_auth_token&lt;/span&gt;&lt;span class=&#34;o&#34;&gt;=&lt;/span&gt;&lt;span class=&#34;kc&#34;&gt;True&lt;/span&gt;&lt;span class=&#34;p&#34;&gt;)&lt;/span&gt;

&lt;/code&gt;&lt;/pre&gt;&lt;/div&gt;&lt;p&gt;æ¨¡å‹ç»“æ„&lt;/p&gt;
&lt;div class=&#34;highlight&#34;&gt;&lt;pre tabindex=&#34;0&#34; class=&#34;chroma&#34;&gt;&lt;code class=&#34;language-fallback&#34; data-lang=&#34;fallback&#34;&gt;M2M100ForConditionalGeneration(
  (model): M2M100Model(
    (shared): Embedding(256206, 1024, padding_idx=1)
    (encoder): M2M100Encoder(
      (embed_tokens): Embedding(256206, 1024, padding_idx=1)
      (embed_positions): M2M100SinusoidalPositionalEmbedding()
      (layers): ModuleList(
        (0-11): 12 x M2M100EncoderLayer(
          (self_attn): M2M100Attention(
            (k_proj): Linear(in_features=1024, out_features=1024, bias=True)
            (v_proj): Linear(in_features=1024, out_features=1024, bias=True)
            (q_proj): Linear(in_features=1024, out_features=1024, bias=True)
            (out_proj): Linear(in_features=1024, out_features=1024, bias=True)
          )
          (self_attn_layer_norm): LayerNorm((1024,), eps=1e-05, elementwise_affine=True)
          (activation_fn): ReLU()
          (fc1): Linear(in_features=1024, out_features=4096, bias=True)
          (fc2): Linear(in_features=4096, out_features=1024, bias=True)
          (final_layer_norm): LayerNorm((1024,), eps=1e-05, elementwise_affine=True)
        )
      )
      (layer_norm): LayerNorm((1024,), eps=1e-05, elementwise_affine=True)
    )
    (decoder): M2M100Decoder(
      (embed_tokens): Embedding(256206, 1024, padding_idx=1)
      (embed_positions): M2M100SinusoidalPositionalEmbedding()
      (layers): ModuleList(
        (0-11): 12 x M2M100DecoderLayer(
          (self_attn): M2M100Attention(
            (k_proj): Linear(in_features=1024, out_features=1024, bias=True)
            (v_proj): Linear(in_features=1024, out_features=1024, bias=True)
            (q_proj): Linear(in_features=1024, out_features=1024, bias=True)
            (out_proj): Linear(in_features=1024, out_features=1024, bias=True)
          )
          (activation_fn): ReLU()
          (self_attn_layer_norm): LayerNorm((1024,), eps=1e-05, elementwise_affine=True)
          (encoder_attn): M2M100Attention(
            (k_proj): Linear(in_features=1024, out_features=1024, bias=True)
            (v_proj): Linear(in_features=1024, out_features=1024, bias=True)
            (q_proj): Linear(in_features=1024, out_features=1024, bias=True)
            (out_proj): Linear(in_features=1024, out_features=1024, bias=True)
          )
          (encoder_attn_layer_norm): LayerNorm((1024,), eps=1e-05, elementwise_affine=True)
          (fc1): Linear(in_features=1024, out_features=4096, bias=True)
          (fc2): Linear(in_features=4096, out_features=1024, bias=True)
          (final_layer_norm): LayerNorm((1024,), eps=1e-05, elementwise_affine=True)
        )
      )
      (layer_norm): LayerNorm((1024,), eps=1e-05, elementwise_affine=True)
    )
  )
  (lm_head): Linear(in_features=1024, out_features=256206, bias=False)
)

&lt;/code&gt;&lt;/pre&gt;&lt;/div&gt;&lt;p&gt;è¿›è¡Œæ‰¹é‡æ¨ç†ç¿»è¯‘&lt;/p&gt;
&lt;div class=&#34;highlight&#34;&gt;&lt;pre tabindex=&#34;0&#34; class=&#34;chroma&#34;&gt;&lt;code class=&#34;language-python&#34; data-lang=&#34;python&#34;&gt;&lt;span class=&#34;o&#34;&gt;%%&lt;/span&gt;&lt;span class=&#34;n&#34;&gt;time&lt;/span&gt;
&lt;span class=&#34;n&#34;&gt;article&lt;/span&gt; &lt;span class=&#34;o&#34;&gt;=&lt;/span&gt; &lt;span class=&#34;p&#34;&gt;[&lt;/span&gt;
…
&lt;span class=&#34;n&#34;&gt;model&lt;/span&gt; &lt;span class=&#34;o&#34;&gt;=&lt;/span&gt; &lt;span class=&#34;n&#34;&gt;AutoModelForSeq2SeqLM&lt;/span&gt;&lt;span class=&#34;o&#34;&gt;.&lt;/span&gt;&lt;span class=&#34;n&#34;&gt;from_pretrained&lt;/span&gt;&lt;span class=&#34;p&#34;&gt;(&lt;/span&gt;&lt;span class=&#34;n&#34;&gt;model_checkpoint&lt;/span&gt;&lt;span class=&#34;p&#34;&gt;)&lt;/span&gt;

&lt;/code&gt;&lt;/pre&gt;&lt;/div&gt;&lt;p&gt;æ¨¡å‹ç»“æ„&lt;/p&gt;
&lt;div class=&#34;highlight&#34;&gt;&lt;pre tabindex=&#34;0&#34; class=&#34;chroma&#34;&gt;&lt;code class=&#34;language-fallback&#34; data-lang=&#34;fallback&#34;&gt;MarianMTModel(
  (model): MarianModel(
    (shared): Embedding(65001, 512, padding_idx=65000)
    (encoder): MarianEncoder(
      (embed_tokens): Embedding(65001, 512, padding_idx=65000)
      (embed_positions): MarianSinusoidalPositionalEmbedding(512, 512)
      (layers): ModuleList(
        (0-5): 6 x MarianEncoderLayer(
          (self_attn): MarianAttention(
            (k_proj): Linear(in_features=512, out_features=512, bias=True)
            (v_proj): Linear(in_features=512, out_features=512, bias=True)
            (q_proj): Linear(in_features=512, out_features=512, bias=True)
            (out_proj): Linear(in_features=512, out_features=512, bias=True)
          )
          (self_attn_layer_norm): LayerNorm((512,), eps=1e-05, elementwise_affine=True)
          (activation_fn): SiLU()
          (fc1): Linear(in_features=512, out_features=2048, bias=True)
          (fc2): Linear(in_features=2048, out_features=512, bias=True)
          (final_layer_norm): LayerNorm((512,), eps=1e-05, elementwise_affine=True)
        )
      )
    )
    (decoder): MarianDecoder(
      (embed_tokens): Embedding(65001, 512, padding_idx=65000)
      (embed_positions): MarianSinusoidalPositionalEmbedding(512, 512)
      (layers): ModuleList(
        (0-5): 6 x MarianDecoderLayer(
          (self_attn): MarianAttention(
            (k_proj): Linear(in_features=512, out_features=512, bias=True)
            (v_proj): Linear(in_features=512, out_features=512, bias=True)
            (q_proj): Linear(in_features=512, out_features=512, bias=True)
            (out_proj): Linear(in_features=512, out_features=512, bias=True)
          )
          (activation_fn): SiLU()
          (self_attn_layer_norm): LayerNorm((512,), eps=1e-05, elementwise_affine=True)
          (encoder_attn): MarianAttention(
            (k_proj): Linear(in_features=512, out_features=512, bias=True)
            (v_proj): Linear(in_features=512, out_features=512, bias=True)
            (q_proj): Linear(in_features=512, out_features=512, bias=True)
            (out_proj): Linear(in_features=512, out_features=512, bias=True)
          )
          (encoder_attn_layer_norm): LayerNorm((512,), eps=1e-05, elementwise_affine=True)
          (fc1): Linear(in_features=512, out_features=2048, bias=True)
          (fc2): Linear(in_features=2048, out_features=512, bias=True)
          (final_layer_norm): LayerNorm((512,), eps=1e-05, elementwise_affine=True)
        )
      )
    )
  )
  (lm_head): Linear(in_features=512, out_features=65001, bias=False)
)

&lt;/code&gt;&lt;/pre&gt;&lt;/div&gt;&lt;p&gt;æ‰¹é‡æ¨ç†ç¿»è¯‘&lt;/p&gt;
&lt;div class=&#34;highlight&#34;&gt;&lt;pre tabindex=&#34;0&#34; class=&#34;chroma&#34;&gt;&lt;code class=&#34;language-python&#34; data-lang=&#34;python&#34;&gt;&lt;span class=&#34;o&#34;&gt;%%&lt;/span&gt;&lt;span class=&#34;n&#34;&gt;time&lt;/span&gt;
&lt;span class=&#34;c1&#34;&gt;#text = [&amp;#34;In terms of time, the Chinese space station was built more than 20 years later than the International Space Station.&amp;#34;,&amp;#34;hello world.&amp;#34;]&lt;/span&gt;
…
