…
t;&amp;#34;facebook/nllb-200-distilled-600M&amp;#34;&lt;/span&gt;&lt;span class=&#34;p&#34;&gt;,&lt;/span&gt; &lt;span class=&#34;n&#34;&gt;use_auth_token&lt;/span&gt;&lt;span class=&#34;o&#34;&gt;=&lt;/span&gt;&lt;span class=&#34;kc&#34;&gt;True&lt;/span&gt;&lt;span class=&#34;p&#34;&gt;)&lt;/span&gt;

&lt;/code&gt;&lt;/pre&gt;&lt;/div&gt;&lt;p&gt;模型结构&lt;/p&gt;
&lt;div class=&#34;highlight&#34;&gt;&lt;pre tabindex=&#34;0&#34; class=&#34;chroma&#34;&gt;&lt;code class=&#34;language-fallback&#34; data-lang=&#34;fallback&#34;&gt;M2M100ForConditionalGeneration(
  (model): M2M100Model(
    (shared): Embedding(256206, 1024, padding_idx=1)
    (encoder): M2M100Encoder(
      (embed_tokens): Embedding(256206, 1024, padding_idx=1)
      (embed_positions): M2M100SinusoidalPositionalEmbedding()
      (layers): ModuleList(
        (0-11): 12 x M2M100EncoderLayer(
          (self_attn): M2M100Attention(
            (k_proj): Linear(in_features=1024, out_features=1024, bias=True)
            (v_proj): Linear(in_features=1024, out_features=1024, bias=True)
            (q_proj): Linear(in_features=1024, out_features=1024, bias=True)
            (out_proj): Linear(in_features=1024, out_features=1024, bias=True)
          )
          (self_attn_layer_norm): LayerNorm((1024,), eps=1e-05, elementwise_affine=True)
          (activation_fn): ReLU()
          (fc1): Linear(in_features=1024, out_features=4096, bias=True)
          (fc2): Linear(in_features=4096, out_features=1024, bias=True)
          (final_layer_norm): LayerNorm((1024,), eps=1e-05, elementwise_affine=True)
        )
      )
      (layer_norm): LayerNorm((1024,), eps=1e-05, elementwise_affine=True)
    )
    (decoder): M2M100Decoder(
      (embed_tokens): Embedding(256206, 1024, padding_idx=1)
      (embed_positions): M2M100SinusoidalPositionalEmbedding()
      (layers): ModuleList(
        (0-11): 12 x M2M100DecoderLayer(
          (self_attn): M2M100Attention(
            (k_proj): Linear(in_features=1024, out_features=1024, bias=True)
            (v_proj): Linear(in_features=1024, out_features=1024, bias=True)
            (q_proj): Linear(in_features=1024, out_features=1024, bias=True)
            (out_proj): Linear(in_features=1024, out_features=1024, bias=True)
          )
          (activation_fn): ReLU()
          (self_attn_layer_norm): LayerNorm((1024,), eps=1e-05, elementwise_affine=True)
          (encoder_attn): M2M100Attention(
            (k_proj): Linear(in_features=1024, out_features=1024, bias=True)
            (v_proj): Linear(in_features=1024, out_features=1024, bias=True)
            (q_proj): Linear(in_features=1024, out_features=1024, bias=True)
            (out_proj): Linear(in_features=1024, out_features=1024, bias=True)
          )
          (encoder_attn_layer_norm): LayerNorm((1024,), eps=1e-05, elementwise_affine=True)
          (fc1): Linear(in_features=1024, out_features=4096, bias=True)
          (fc2): Linear(in_features=4096, out_features=1024, bias=True)
          (final_layer_norm): LayerNorm((1024,), eps=1e-05, elementwise_affine=True)
        )
      )
      (layer_norm): LayerNorm((1024,), eps=1e-05, elementwise_affine=True)
    )
  )
  (lm_head): Linear(in_features=1024, out_features=256206, bias=False)
)

&lt;/code&gt;&lt;/pre&gt;&lt;/div&gt;&lt;p&gt;进行批量推理翻译&lt;/p&gt;
&lt;div class=&#34;highlight&#34;&gt;&lt;pre tabindex=&#34;0&#34; class=&#34;chroma&#34;&gt;&lt;code class=&#34;language-python&#34; data-lang=&#34;python&#34;&gt;&lt;span class=&#34;o&#34;&gt;%%&lt;/span&gt;&lt;span class=&#34;n&#34;&gt;time&lt;/span&gt;
&lt;span class=&#34;n&#34;&gt;article&lt;/span&gt; &lt;span class=&#34;o&#34;&gt;=&lt;/span&gt; &lt;span class=&#34;p&#34;&gt;[&lt;/span&gt;
…
&lt;span class=&#34;n&#34;&gt;model&lt;/span&gt; &lt;span class=&#34;o&#34;&gt;=&lt;/span&gt; &lt;span class=&#34;n&#34;&gt;AutoModelForSeq2SeqLM&lt;/span&gt;&lt;span class=&#34;o&#34;&gt;.&lt;/span&gt;&lt;span class=&#34;n&#34;&gt;from_pretrained&lt;/span&gt;&lt;span class=&#34;p&#34;&gt;(&lt;/span&gt;&lt;span class=&#34;n&#34;&gt;model_checkpoint&lt;/span&gt;&lt;span class=&#34;p&#34;&gt;)&lt;/span&gt;

&lt;/code&gt;&lt;/pre&gt;&lt;/div&gt;&lt;p&gt;模型结构&lt;/p&gt;
&lt;div class=&#34;highlight&#34;&gt;&lt;pre tabindex=&#34;0&#34; class=&#34;chroma&#34;&gt;&lt;code class=&#34;language-fallback&#34; data-lang=&#34;fallback&#34;&gt;MarianMTModel(
  (model): MarianModel(
    (shared): Embedding(65001, 512, padding_idx=65000)
    (encoder): MarianEncoder(
      (embed_tokens): Embedding(65001, 512, padding_idx=65000)
      (embed_positions): MarianSinusoidalPositionalEmbedding(512, 512)
      (layers): ModuleList(
        (0-5): 6 x MarianEncoderLayer(
          (self_attn): MarianAttention(
            (k_proj): Linear(in_features=512, out_features=512, bias=True)
            (v_proj): Linear(in_features=512, out_features=512, bias=True)
            (q_proj): Linear(in_features=512, out_features=512, bias=True)
            (out_proj): Linear(in_features=512, out_features=512, bias=True)
          )
          (self_attn_layer_norm): LayerNorm((512,), eps=1e-05, elementwise_affine=True)
          (activation_fn): SiLU()
          (fc1): Linear(in_features=512, out_features=2048, bias=True)
          (fc2): Linear(in_features=2048, out_features=512, bias=True)
          (final_layer_norm): LayerNorm((512,), eps=1e-05, elementwise_affine=True)
        )
      )
    )
    (decoder): MarianDecoder(
      (embed_tokens): Embedding(65001, 512, padding_idx=65000)
      (embed_positions): MarianSinusoidalPositionalEmbedding(512, 512)
      (layers): ModuleList(
        (0-5): 6 x MarianDecoderLayer(
          (self_attn): MarianAttention(
            (k_proj): Linear(in_features=512, out_features=512, bias=True)
            (v_proj): Linear(in_features=512, out_features=512, bias=True)
            (q_proj): Linear(in_features=512, out_features=512, bias=True)
            (out_proj): Linear(in_features=512, out_features=512, bias=True)
          )
          (activation_fn): SiLU()
          (self_attn_layer_norm): LayerNorm((512,), eps=1e-05, elementwise_affine=True)
          (encoder_attn): MarianAttention(
            (k_proj): Linear(in_features=512, out_features=512, bias=True)
            (v_proj): Linear(in_features=512, out_features=512, bias=True)
            (q_proj): Linear(in_features=512, out_features=512, bias=True)
            (out_proj): Linear(in_features=512, out_features=512, bias=True)
          )
          (encoder_attn_layer_norm): LayerNorm((512,), eps=1e-05, elementwise_affine=True)
          (fc1): Linear(in_features=512, out_features=2048, bias=True)
          (fc2): Linear(in_features=2048, out_features=512, bias=True)
          (final_layer_norm): LayerNorm((512,), eps=1e-05, elementwise_affine=True)
        )
      )
    )
  )
  (lm_head): Linear(in_features=512, out_features=65001, bias=False)
)

&lt;/code&gt;&lt;/pre&gt;&lt;/div&gt;&lt;p&gt;批量推理翻译&lt;/p&gt;
&lt;div class=&#34;highlight&#34;&gt;&lt;pre tabindex=&#34;0&#34; class=&#34;chroma&#34;&gt;&lt;code class=&#34;language-python&#34; data-lang=&#34;python&#34;&gt;&lt;span class=&#34;o&#34;&gt;%%&lt;/span&gt;&lt;span class=&#34;n&#34;&gt;time&lt;/span&gt;
&lt;span class=&#34;c1&#34;&gt;#text = [&amp;#34;In terms of time, the Chinese space station was built more than 20 years later than the International Space Station.&amp;#34;,&amp;#34;hello world.&amp;#34;]&lt;/span&gt;
…
